LeNet/lenet.pth (torch, 487495 bytes, 10 tensors)

conv1.weight f4 [16, 3, 5, 5]
-0.06538777 0.022766039 0.028207472 0.075613864 -0.0048138546 0.13172244 0.024635175 -0.10440099
-0.10030737 -0.08178813 -0.056593325 -0.015722059 0.0013760945 -0.036486417 -0.09451559 0.06458529
-0.10390465 0.06347405 -0.014766704 -0.14043732 0.04599011 -0.01251888 -0.14757976 -0.0034223706
-0.08561004 -0.0064729904 -0.01855867 -0.056286857 0.038201544 0.049065076 -0.18715215 -0.015085885
-0.010002784 0.0558355 0.13335402 -0.08460006 -0.019335411 -0.06817134 0.010710251 0.11792087
-0.09862358 0.014774631 -0.01272235 -0.057405777 0.06142605 0.029266123 0.04031611 -0.13423261
0.03708612 -0.06682782 -0.013705712 -0.052907657 0.11299665 0.09232372 0.2165466 -0.02966224
-0.072889574 0.117942214 0.19879234 0.18642876 -0.16156682 -0.08100908 0.0978508 0.1791191
0.17061578 0.02206311 0.0566675 -0.010025257 0.09378188 0.22501218 -0.11418464 0.019789867
0.108212955 0.07512339 0.14586173 -0.14135675 0.02455511 0.17519274 0.03793246 0.084590025
-0.18465365 -0.0805729 0.20930845 0.07330371 0.08571952 -0.12501208 -0.28566262 0.027008561
0.17479706 0.17837533 -0.113590844 -0.20277615 -0.28892148 0.01607952 0.09528372 0.12536672
-0.1508675 -0.23919536 -0.15159169 -0.014765532 -0.008851261 0.056719046 -0.0030656355 0.06738138
-0.01328018 -0.2139431 -0.0020169131 0.16430958 0.044527665 0.12976234 -0.08667546 -0.31455237
0.029376082 0.24813351 0.103129685 0.056730498 -0.21628574 -0.2223701 0.0024744447 0.16898882
0.13785182 -0.08615843 -0.16973037 -0.10822543 0.1249467 -0.026133183 0.16758142 0.023377508
-0.051049307 -0.10919124 0.0069457265 -0.009472526 0.01469155 0.0042705205 0.008902883 -0.04059394
-0.072244935 0.13768198 0.018791933 0.0642415 0.15631297 -0.21180548 -0.1869363 -0.045825813
0.18351197 0.08767451 0.1689341 0.05890567 -0.18042006 -0.057128176 0.11246099 -0.03239836
-0.073798925 -0.025897084 0.039990928 0.0846327 -0.09430861 -0.08777872 0.20578994 0.06503099
-0.14745802 -0.2709445 -0.037985507 0.114921875 0.11012712 -0.14754176 -0.10867695 0.066111825
0.15197545 0.019486232 -0.06410216 -0.039601754 0.06376987 0.041869365 0.003141846 0.1289399
-0.22633466 -0.10494578 0.07329196 -0.037632953 -0.047223877 -0.26890373 -0.18121737 0.20934169
0.12843959 -0.052924223 -0.29633564 0.0436548 0.18682969 0.21984869 -0.079547726 -0.094994694
0.029942567 0.22063902 0.13710535 0.0026764513 0.092580006 -0.030402219 0.026225878 -0.024413226
-0.095614605 -0.093603894 -0.09844645 -0.0011176036 0.07791257 -0.13715853 -0.29007158 -0.16702479
0.109369695 0.042872205 -0.06280646 -0.1873122 -0.057323135 0.14958297 0.10381463 -0.11906488
-0.09016566 0.08947548 0.20502838 0.21372688 -0.0013413549 0.050394323 0.17422833 0.07695221
0.0061779157 0.04216741 -0.16908194 -0.100370415 -0.086630866 -0.131739 -0.19231306 -0.24004212
-0.25230217 -0.047316384 -0.116028026 -0.008918836 0.10866401 -0.07586326 -0.0488605 0.04021029
0.14158623 0.21386041 0.1325517 0.123716146 0.07744401 0.012948642 -0.0011743307 0.12520134
0.013434921 -0.043012712 0.0039540487 -0.07403476 -0.094352566 -0.08539421 -0.047197655 -0.08489585
00000000: 06ea 85bd d87f ba3c 5b13 e73c 71db 9a3d
00000010: 8abd 9dbb 3fe2 063e b5cf c93c 30d0 d5bd
00000020: f36d cdbd 8980 a7bd 67ce 67bd 8ccb 80bc
00000030: 125e b43a c872 15bd 6491 c1bd 4b45 843d
00000040: f6cb d4bd affe 813d 0cf0 71bc cdce 0fbe
00000050: 2060 3c3d fd1b 4dbc 261f 17be da49 60bb
00000060: 5154 afbd 611b d4bb 5a08 98bc 0c8d 66bd
00000070: 3979 1c3d 76f8 483d d0a4 3fbe ca2a 77bc
00000080: b8e2 23bc c4b3 643d f58d 083e cc42 adbd
00000090: 4c65 9ebc 6a9d 8bbd 0c7a 2f3c 7f80 f13d
000000a0: 29fb c9bd 4b11 723c 6771 50bc 5222 6bbd
000000b0: e299 7b3d 82bf ef3c 8122 253d 4674 09be
000000c0: 9ee7 173d 06dd 88bd ec8d 60bc b3b5 58bd
000000d0: ca6a e73d 3814 bd3d 64be 5d3e 3afe f2bc
000000e0: 2147 95bd b08b f13d 3890 4b3e 2ee7 3e3e
000000f0: c671 25be 17e8 a5bd 0066 c83d ff6a 373e
00000100: e7b5 2e3e b2bd b43c 2e1c 683d fa40 24bc
00000110: b710 c03d 9869 663e a3d9 e9bd 5c1e a23c
00000120: c19e dd3d 4bda 993d c75c 153e d3bf 10be
00000130: cc27 c93c ba65 333e 115f 1b3d 893d ad3d
00000140: d915 3dbe 6803 a5bd f454 563e 4120 963d
00000150: b78d af3d 2b03 00be 5f42 92be 0f41 dd3c
00000160: 00fe 323e 06a8 363e 51a2 e8bd 8da4 4fbe
00000170: 84ed 93be 33b9 833c 1c24 c33d 2260 003e
00000180: 037d 1abe a1ef 74be da3a 1bbe 21eb 71bc
00000190: e104 11bc 3b52 683d d4e8 48bb 40ff 893d
000001a0: 1d95 59bc e613 5bbe 302e 04bb c540 283e
000001b0: a462 363d 6be0 043e e782 b1bd 020d a1be
000001c0: 1ca6 f03c b616 7e3e a835 d33d 3d5e 683d
000001d0: 027a 5dbe fdb4 63be 4b2a 223b 680b 2d3e
000001e0: 0729 0d3e d573 b0bd cccd 2dbe 4ba5 ddbd
000001f0: 0ee4 ff3d 4215 d6bc 779a 2b3e 3082 bf3c
00000200: 1419 51bd a89f dfbd fa98 e33b a732 1bbc
00000210: d4b4 703c b9ef 8b3b 66dd 113c d545 26bd
00000220: 27f5 93bd 81fc 0c3e 8af1 993c 0c91 833d
00000230: 8210 203e 89e3 58be 3b6c 3fbe d9b3 3bbd
00000240: 90ea 3b3e b28e b33d 10fd 2c3e 1247 713d
00000250: 09c0 38be 3cff 69bd f351 e63d 25b4 04bd
00000260: e423 97bd 1f26 d4bc 87cd 233d e953 ad3d
00000270: df24 c1bd 54c5 b3bd 99ba 523e f82e 853d
00000280: 3cff 16be 3db9 8abe b196 1bbd 295c eb3d
00000290: 548a e13d 3015 17be 0592 debd a365 873d
000002a0: 749f 1b3e 97a1 9f3c fe47 83bd 7335 22bd
000002b0: c799 823d 367f 2b3d 6ee7 4d3b d208 043e
000002c0: 46c4 67be d0ed d6bd 181a 963d 0325 1abd
000002d0: d36d 41bd c0ad 89be 0c91 39be ab5d 563e
000002e0: ab85 033e 12c7 58bd 4eb9 97be 60cf 323d
000002f0: 4850 3f3e 0420 613e ebe9 a2bd 948c c2bd
00000300: 1d4a f53c 32ef 613e 5865 0c3e 6767 2f3b
00000310: 969a bd3d 130e f9bc a7d7 d63c 3ffe c7bc
00000320: 97d1 c3bd 66b3 bfbd 4b9e c9bd 8e7c 92ba
00000330: a090 9f3d 4973 0cbe 4384 94be 8c08 2bbe
00000340: 38fd df3d c49a 2f3d aca0 80bd c5ce 3fbe
00000350: aacb 6abd 472c 193e c49c d43d 4ad8 f3bd
00000360: c6a8 b8bd ec3e b73d f6f2 513e 38db 5a3e
00000370: 67d0 afba 476a 4e3d e968 323e 1f99 9d3d
00000380: 1d70 ca3b bcb7 2c3d d123 2dbe 018f cdbd
00000390: 866b b1bd 97e6 06be b7ed 44be 9acd 75be
000003a0: c02d 81be d3ce 41bd 1aa0 edbd 4f20 12bc
000003b0: 3d8b de3d 325e 9bbd f321 48bd 8cb3 243d
000003c0: fbfb 103e 39fe 5a3e a2bb 073e e45e fd3d
000003d0: f79a 9e3d 8a26 543c 00ec 99ba c834 003e
000003e0: 251e 5c3c 192e 30bd f790 813b 899f 97bd
000003f0: eb3b c1bd 29e3 aebd 5452 41bd e0dd adbd

conv1.bias f4 [16]
-0.037006915 -0.37504324 -0.1749006 -0.19065942 -0.062091235 -0.008686182 -0.06832674 0.09496298
-0.0629655 -0.22530636 -0.10606277 -0.16986471 -0.0063858773 -0.11325939 -0.22017112 -0.14802048
00000000: 9094 17bd ab05 c0be 2519 33be 393c 43be
00000010: 6153 7ebd 7d50 0ebc e4ee 8bbd f37b c23d
00000020: 0ef4 80bd b6b6 66be 7037 d9bd 04f1 2dbe
00000030: 9f40 d1bb 8af4 e7bd 8a74 61be ae92 17be

conv2.weight f4 [32, 16, 5, 5]
-0.00941695 0.023645248 0.007626155 -0.049694534 0.022242604 0.012880476 -0.03552725 -0.014908825
0.027250636 -0.0021817998 -0.067242876 -0.05848378 0.011555067 -0.062475562 -0.018838672 0.017506698
-0.04079547 0.005340497 0.0073748278 0.02158509 -0.023706855 -0.044152692 0.013165124 -0.054018084
-0.038024478 0.008598538 -0.0004959092 -0.008553327 0.019986564 -0.053937737 -0.029554099 -0.053456776
-0.047726035 -0.028807728 -0.015367031 -0.06565629 -0.04065814 -0.06397894 -0.067165636 -0.04071404
-0.009787211 0.00818715 -0.004010008 -0.003544192 -0.058160204 -0.040920407 -0.027042357 -0.04154885
0.01800126 -0.056473408 -0.02513862 -0.0028963834 -0.078091756 -0.018743226 -0.05047588 0.01749581
-0.07274214 -0.02158128 0.006276756 -0.079729825 -0.07784428 -0.07419702 -0.05298244 -0.02764822
-0.06703676 0.028714731 -0.03616633 -0.008331436 0.014810048 -0.07775509 -0.04452195 0.022560794
-0.04281124 -0.014384053 -0.02790911 -0.027421588 -0.008606015 -0.045912556 -0.004667937 -0.02609056
-0.024506886 0.038358856 -0.008739923 -0.027559558 -0.03274958 0.006939966 -0.043997515 0.02080124
-0.06769437 0.007151997 0.018685985 0.0064133825 -0.005524718 0.019689001 -0.011832916 -0.01287037
-0.01150214 -0.030924132 -0.029154385 -0.036873277 -0.046038955 0.028635936 -0.047606584 -0.01675838
0.010300645 -0.03542433 -0.037605137 -0.009475664 -0.07128295 -0.042486183 -0.057986923 -0.062079325
0.025234178 -0.01441456 0.007830535 -0.055118453 -0.0017487745 -0.046465375 -0.021623509 0.0028532783
-0.039569106 -0.054279502 -0.05809689 0.021308858 0.008007313 0.012784603 -0.0027772004 -0.0044018407
-0.04609488 -0.026840594 -0.075538814 -0.019981751 0.011086541 -0.012346585 0.010464374 -0.022103291
0.00078384456 -0.05610786 -0.04385503 0.0035026362 -0.0460291 -0.058850694 -0.0045834812 -0.007196544
0.007676481 0.007284403 -0.05957653 -0.052639443 -0.009904885 0.018495955 -0.056731336 -0.022794118
-0.053220857 0.0002634014 -0.016169611 0.0070870714 -0.062609054 0.01271017 -0.01923696 0.019475518
0.02170754 -0.033936154 -0.0072678076 -0.055998977 -0.06033533 -0.047444627 -0.0021288441 -0.0378439
0.003707192 -0.0025027147 -0.04320329 -0.021471823 -0.008769307 -0.057115946 -0.0025483577 -0.020616593
-0.04700378 -0.049417734 -0.041032974 0.018693551 -0.02553402 -0.032922372 0.014338592 0.025150679
-0.017232716 -0.019378513 -0.025048021 -0.008052147 -0.065634556 -0.041649505 0.028981308 0.0048516705
-0.021199256 -0.00025688467 0.015561934 -0.040000018 -0.053384837 -0.020153778 -0.049492255 0.020056603
0.014879987 0.0078116194 0.00650674 0.0073296684 -0.016377952 0.013991419 -0.07096994 0.012783058
-0.02477627 -0.039081223 -0.037933353 0.009608313 -0.012759335 -0.045042012 -0.028582066 -0.03243522
0.008224704 -0.040574435 -0.014090683 -0.04440461 -0.036884543 0.018106207 -0.060910102 -0.062982276
-0.03679644 0.03330701 -0.0012989941 -0.02144888 -0.0384983 -0.07420761 0.009461505 0.0040135225
-0.03856175 -0.053248934 -0.04930181 -0.04168209 -0.004232905 -0.05419335 -0.07470652 -0.041129854
0.024934895 -0.0024455322 -0.0107724285 -0.03334975 -0.06820448 -0.05247085 -0.0073325685 -0.015991455
-0.029681254 0.01669018 -0.020052718 -0.060091875 -0.019578049 -0.005315618 0.016161503 -0.024679236
00000000: 8d49 1abc aeb3 c13c d3e4 f93b 7f8c 4bbd
00000010: 1f36 b63c a208 533c 0685 11bd 2544 74bc
00000020: ba3c df3c 87fc 0ebb a2b6 89bd b08c 6fbd
00000030: 7751 3d3c 60e6 7fbd 8f53 9abc 356a 8f3c
00000040: 2719 27bd 56ff ae3b 8aa8 f13b 37d3 b03c
00000050: e134 c2bc 74d9 34bd 88b2 573c 1142 5dbd
00000060: 8ebf 1bbd e2e0 0c3c e7ff 01ba 4123 0cbc
00000070: ddba a33c d1ed 5cbd 701b f2bc 7ef5 5abd
00000080: 607c 43bd 2ffe ebbc 00c6 7bbc ce76 86bd
00000090: 2689 26bd 6407 83bd 238e 89bd c4c3 26bd
000000a0: 8a5a 20bc 6523 063c 6366 83bb ad45 68bb
000000b0: 6539 6ebd 289c 27bd ef87 ddbc 202f 2abd
000000c0: 6177 933c a950 67bd 82ef cdbc 40d1 3dbb
000000d0: 92ee 9fbd 658b 99bc ccbf 4ebd 5f53 8f3c
000000e0: d5f9 94bd 39cb b0bc 3fad cd3b 6449 a3bd
000000f0: d26c 9fbd 9bf4 97bd 1d04 59bd 857e e2bc
00000100: 924a 89bd 283b eb3c 2523 14bd 9380 08bc
00000110: d8a5 723c 103e 9fbd a65c 36bd 6ad1 b83c
00000120: d75a 2fbd 17ab 6bbc a5a1 e4bc 3da3 e0bc
00000130: 3e00 0dbc ce0e 3cbd 7ef5 98bb dfbb d5bc
00000140: aac2 c8bc 2d1e 1d3d e531 0fbc 95c4 e1bc
00000150: 6c24 06bd a868 e33b bd36 34bd 5d67 aa3c
00000160: 59a3 8abd 4d5b ea3b 5a13 993c 5a27 d23b
00000170: b208 b5bb d44a a13c d9de 41bc 3fde 52bc
00000180: 7973 3cbc 9b54 fdbc 2dd5 eebc 6f08 17bd
00000190: 5893 3cbd e995 ea3c 1fff 42bd df48 89bc
000001a0: 09c4 283c 1a19 11bd d807 1abd d13f 1bbc
000001b0: ccfc 91bd fe05 2ebd b283 6dbd e446 7ebd
000001c0: e8b7 ce3c 0c2b 6cbc a54b 003c e3c3 61bd
000001d0: 2337 e5ba 7a52 3ebd c923 b1bc 11fe 3a3b
000001e0: 3713 22bd 2f54 5ebd 01f7 6dbd ea8f ae3c
000001f0: 1b31 033c 8376 513c b101 36bb 513d 90bb
00000200: fccd 3cbd cee0 dbbc 18b4 9abd c5b0 a3bc
00000210: 53a4 353c 5549 4abc c472 2b3c f611 b5bc
00000220: eb7a 4d3a 5bd1 65bd 55a1 33bd 7c8c 653b
00000230: 0289 3cbd 6d0d 71bd 0731 96bb fdd0 ebbb
00000240: fd8a fb3b 00b2 ee3b 8506 74bd 759c 57bd
00000250: 1948 22bc d484 973c 1e5f 68bd bbba babc
00000260: 1dfe 59bd 2319 8a39 2276 84bc aa3a e83b
00000270: 2d39 80bd 513e 503c d496 9dbc 1f8b 9f3c
00000280: 03d4 b13c a300 0bbd ca26 eebb 2f5f 65bd
00000290: 2e22 77bd 4c55 42bd 1484 0bbb 3502 1bbd
000002a0: 5cf4 723b 9604 24bb eff5 30bd ade5 afbc
000002b0: 24ad 0fbc 69f2 69bd 5902 27bb 21e4 a8bc
000002c0: 0987 40bd 406a 4abd 3112 28bd 3823 993c
000002d0: b92c d1bc 9cd9 06bd 6aec 6a3c cc08 ce3c
000002e0: a02b 8dbc b0bf 9ebc 8231 cdbc 27ed 03bc
000002f0: 696b 86bd ac98 2abd 356a ed3c c3fa 9e3b
00000300: 10aa adbc 7aae 86b9 7bf7 7e3c 0fd7 23bd
00000310: 0faa 5abd 8919 a5bc 64b8 4abd bf4d a43c
00000320: 30cb 733c 9df8 ff3b 7e36 d53b b72d f03b
00000330: 0e2b 86bc 443c 653c b058 91bd 0870 513c
00000340: 9bf7 cabc a213 20bd 0160 1bbd 306c 1d3c
00000350: 880c 51bc f97d 38bd f024 eabc cbda 04bd
00000360: e9c0 063c 6131 26bd 9cdc 66bc 9ce1 35bd
00000370: 3f14 17bd 7853 943c df7c 79bd dafc 80bd
00000380: ddb7 16bd ee6c 083d 0243 aaba 90b5 afbc
00000390: 65b0 1dbd 29fa 97bd 6e04 1b3c de83 833b
000003a0: edf2 1dbd 8e1b 5abd b2f0 49bd d7ba 2abd
000003b0: 2eb4 8abb d9f9 5dbd bbff 98bd c777 28bd
000003c0: 4444 cc3c 3945 20bb d77e 30bc bf99 08bd
000003d0: caae 8bbd adeb 56bd 0b46 f0bb 8300 83bc
000003e0: 1a26 f3bc d8b9 883c 9945 a4bc e622 76bd
000003f0: 2562 a0bc a32e aebb 2165 843c 1c2c cabc

conv2.bias f4 [32]
-0.065000825 0.125505 0.17069976 0.09627592 -0.056555245 -0.06083006 0.52617204 0.27254936
0.12265069 -0.27359167 0.55706143 -0.04068023 -0.02160645 -0.19844773 -0.17584814 0.20074937
-0.07867944 0.11758178 -0.15271619 0.44430128 0.098685496 -0.12349816 -0.21328068 -0.04323406
0.30029553 -0.008948338 0.06746301 0.30835643 0.07312221 0.7059482 -0.31958866 0.23023535
00000000: 271f 85bd 6284 003e ebcb 2e3e 4f2c c53d
00000010: 79a6 67bd f128 79bd 36b3 063f 978b 8b3e
00000020: 4930 fb3d 3514 8cbe 949b 0e3f 50a0 26bd
00000030: 0300 b1bc e235 4bbe 8911 34be 3e91 4d3e
00000040: b022 a1bd b7ce f03d a261 1cbe 757b e33e
00000050: 9f1b ca3d 9aec fcbd 4066 5abe 3316 31bd
00000060: 56c0 993e 0d9c 12bc 0c2a 8a3d e5e0 9d3e
00000070: 19c1 953d 05b9 343f 20a1 a3be d1c2 6b3e

fc1.weight f4 [120, 800]
-0.030917019 -0.022568569 -0.00013073497 0.018349791 -0.037202407 -0.009630814 -0.043552764 0.003980138
0.05333251 0.03951947 0.023532143 -0.005582833 0.0077618016 0.0021517714 -0.046115957 -0.027179081
0.03575733 0.0023338979 0.013428449 0.008722576 0.037984386 -0.009758352 -0.037974823 -0.011876764
-0.002705353 0.056384258 0.093295686 0.060333185 0.03533231 0.054376435 0.035342 -0.006240003
0.04142775 -0.023176588 -0.17959781 -0.07535167 -0.037320763 0.018791633 0.053373285 -0.048431136
0.1474172 -1.7355931e-05 -0.14667691 -0.076195695 -0.041178625 0.06617595 0.06844906 0.19923739
-0.15346026 -0.11507531 -0.123359166 -0.01761109 0.14147161 0.12379711 -0.021976788 0.09762171
0.23819207 0.071842894 0.14659104 -0.10741599 -0.027843421 0.095719166 -0.007868879 0.040347666
0.11232921 0.02463602 0.09643823 -0.016441526 0.097759895 -0.035973337 -0.2420125 -0.2584251
0.03750269 0.12201498 0.013861782 -0.12782173 -0.1173839 0.1450533 0.16218929 -0.30158907
-0.040006395 -0.059965085 0.13670176 0.0989181 -0.19474077 0.14283283 0.1462118 -0.010108581
-0.04442991 -0.07925966 0.14736494 0.19411767 0.06774188 0.080268726 0.14158072 -0.123176455
-0.1031581 -0.065376356 0.03395677 0.05835271 -0.14947681 -0.24893928 -0.12891719 -0.437701
-0.31854278 -0.023151893 -0.13508826 0.016719108 -0.06018893 -0.2900449 0.1545669 0.013196425
0.18034491 -0.06750096 -0.23416916 0.09091663 -0.017820802 0.08719436 0.1575988 -0.019234406
0.2655271 0.16671093 0.225626 0.18559532 -0.045362677 0.047614332 -0.07797414 0.08139156
0.03562456 0.020366274 0.06974912 -0.1064998 -0.15942186 -0.084299706 -0.06383189 0.13114023
0.045986433 0.03822708 0.012187219 0.06594743 0.07764516 0.054376896 -0.0030979756 0.015776789
0.11000126 0.05474012 -0.07384107 0.110684566 0.09536353 0.13182664 0.07778076 -0.15899302
-0.13637549 0.008606669 0.07335497 0.04696815 -0.10909297 -0.06635654 -0.098470084 0.026136674
0.036183123 0.101051204 -0.12319953 -0.07826708 -0.042924266 0.11145997 -0.084467515 -0.11498486
0.014330094 0.096861824 0.009021156 -0.087664 -0.16188844 0.1932695 0.15645789 -0.0011629257
0.08166274 0.04808816 0.19558932 0.2332309 0.05714156 -0.14134546 -0.03116059 -0.1712256
-0.15332964 0.05219897 -0.02179727 0.0010296325 -0.23438267 -0.09612323 0.21096712 0.10532699
0.1559936 0.19055265 0.13540883 -0.033604417 -0.20244923 -0.08357152 0.072443634 0.14173009
-0.2717943 -0.12957199 0.038132682 0.032180555 -0.13139805 0.02249023 -0.06190677 -0.094788164
0.025460247 0.2255322 -0.20064723 -0.15532608 0.15901317 0.13924287 0.07075891 -0.014316632
0.07183367 0.00517265 0.035547063 0.06142362 -0.07621682 -0.068330936 0.10987551 0.09498448
0.11577568 -0.02726836 -0.35552302 -0.029631855 0.05544098 0.0650192 -0.030398022 -0.11364646
-0.04277532 -0.10595233 -0.315847 -0.046757113 0.039678104 -0.09356899 -0.11479571 -0.07614378
0.02500218 0.028165681 0.16123635 0.07835216 0.1304368 -0.17014329 -0.1521698 -0.1577734
-0.03667175 0.026779335 0.14950025 -0.0513143 0.026078444 0.14157502 0.07937268 0.04879863
00000000: b045 fdbc b8e1 b8bc e715 09b9 4d52 963c
00000010: 8d61 18bd 90ca 1dbc 6264 32bd d16b 823b
00000020: 3173 5a3d 2bdf 213d 7bc6 c03c 33f0 b6bb
00000030: b656 fe3b bc04 0d3b 16e4 3cbd aaa6 debc
00000040: 4776 123d 4ff4 183b ff02 5c3c 23e9 0e3c
00000050: 8495 1b3d 7fe1 1fbc 7d8b 1bbd c296 42bc
00000060: 4b4c 31bb 2ef3 663d cf11 bf3d ee1f 773d
00000070: 9db8 103d d3b9 5e3d c6c2 103d f078 ccbb
00000080: 25b0 293d d4dc bdbc 7de8 37be fa51 9abd
00000090: a8dd 18bd e9f0 993c f29d 5a3d ba5f 46bd
000000a0: 89f4 163e 9497 91b7 7932 16be 7d0c 9cbd
000000b0: ebaa 28bd 4287 873d 052f 8c3d e304 4c3e
000000c0: b024 1dbe 9bac ebbd bba3 fcbd 2245 90bc
000000d0: efdd 103e 5789 fd3d aa08 b4bc e4ed c73d
000000e0: 9fe8 733e 5e22 933d f61b 163e eafc dbbd
000000f0: e317 e4bc 6908 c43d 78ec 00bc 9843 253d
00000100: db0c e63d 7bd1 c93c 6881 c53d 61b0 86bc
00000110: 5736 c83d c758 13bd 20d2 77be 4b50 84be
00000120: 6c9c 193d fde2 f93d 871c 633c b3e3 02be
00000130: f866 f0bd da88 143e f314 263e e269 9abe
00000140: bfdd 23bd f39d 75bd 8cfb 0b3e 9395 ca3d
00000150: 206a 47be c542 123e 8cb8 153e 769e 25bc
00000160: 23fc 35bd e352 a2bd d6e6 163e c8c6 463e
00000170: 41bc 8a3d ee63 a43d 89fa 103e f043 fcbd
00000180: 8e44 d3bd 0ae4 85bd 4116 0b3d 4003 6f3d
00000190: 7310 19be f0e9 7ebe de02 04be 581a e0be
000001a0: 0a18 a3be 0aa9 bdbc 9454 0abe 83f6 883c
000001b0: ab88 76bd c480 94be c946 1e3e d135 583c
000001c0: 56ac 383e f13d 8abd 0aca 6fbe 8032 ba3d
000001d0: eefc 91bc f592 b23d 9461 213e 7991 9dbc
000001e0: 2bf3 873e 45b6 2a3e 810a 673e b30c 3e3e
000001f0: 37ce 39bd 3f07 433d e8b0 9fbd 9eb0 a63d
00000200: 0feb 113d 2cd7 a63c a0d8 8e3d 911c dabd
00000210: 7c3f 23be 53a5 acbd 4bba 82bd a049 063e
00000220: 455c 3c3d 0094 1c3d e7ac 473c 720f 873d
00000230: 6d04 9f3d 4fba 5e3d 6807 4bbb 533e 813c
00000240: 5748 e13d 2d37 603d fd39 97bd 97ae e23d
00000250: f44d c33d 90fd 063e 854b 9f3d 11cf 22be
00000260: 04a6 0bbe fc02 0d3c 213b 963d ad61 403d
00000270: 236c dfbd f0e5 87bd afaa c9bd 941c d63c
00000280: c134 143d eff3 ce3d 0950 fcbd 7e4a a0bd
00000290: 5bd1 2fbd 2045 e43d 4efd acbd 2f7d ebbd
000002a0: c5c8 6a3c 7e5f c63d 78cd 133c 2f89 b3bd
000002b0: 15c6 25be 71e8 453e 7f36 203e 506d 98ba
000002c0: cb3e a73d 17f8 443d 9148 483e 15d4 6e3e
000002d0: 450d 6a3d ddbc 10be 7e44 ffbc c455 2fbe
000002e0: 7202 1dbe 96ce 553d 3090 b2bc bcf4 863a
000002f0: 0302 70be 42dc c4bd c407 583e adb5 d73d
00000300: c9bc 1f3e 3c20 433e 9da8 0a3e c9a4 09bd
00000310: da4e 4fbe 8c27 abbd 545d 943d b121 113e
00000320: 9f28 8bbe 85ae 04be 0431 1c3d c2cf 033d
00000330: 368d 06be 6e3d b83c f491 7dbd 4c20 c2bd
00000340: 0292 d03c eaf1 663e 7876 4dbe cd0d 1fbe
00000350: 59d4 223e af95 0e3e 0cea 903d 4f90 6abc
00000360: 881d 933d 557f a93b cc99 113d 5597 7b3d
00000370: 9017 9cbd 17f1 8bbd 6906 e13d 3987 c23d
00000380: cd1b ed3d e561 dfbc 1d07 b6be 81be f2bc
00000390: 1516 633d c928 853d 4605 f9bc 7abf e8bd
000003a0: 2d35 2fbd 89fd d8bd b3b6 a1be 6384 3fbd
000003b0: 8285 223d 19a1 bfbd 031a ebbd 45f1 9bbd
000003c0: 5fd1 cc3c b7bb e63c 241b 253e 1977 a03d
000003d0: 3991 053e 0b3a 2ebe 66d2 1bbe 5a8f 21be
000003e0: 1e35 16bd 5660 db3c 9816 193e f22e 52bd
000003f0: 76a2 d53c 0bf9 103e 258e a23d 12e1 473d

fc1.bias f4 [120]
0.7128708 0.18316345 -0.026121687 -0.015571091 -0.048678122 -0.013179768 -0.021180004 0.09869904
-0.074378185 0.0141940545 0.3135522 0.23767857 0.25107464 0.277392 -0.0013174001 -0.010371454
0.012113489 0.031713504 0.19507962 0.47081816 -0.023827095 -0.046254955 0.65389013 0.10668672
0.0041106925 -0.012811945 -0.09685404 -0.0016452137 0.067325726 -0.036502365 -0.053336874 0.26908875
-0.03615715 0.1982602 -0.031628013 -0.13860351 -0.1391714 0.22007912 0.13512576 -0.018201122
0.41536692 -0.17696455 0.023117706 0.0049092933 -0.042785984 0.1874077 -0.020058563 0.08049683
-0.053801518 0.0028260483 -0.076896794 -0.04941416 0.21154328 0.011216316 0.27339813 -0.020096108
-0.030278048 0.014049903 5.3376716e-06 -0.32026273 0.40454465 -0.028667688 0.16671734 0.046308376
0.045792013 -0.021896388 0.22648178 0.39122933 -0.038636055 0.043998457 0.2732465 -0.02070196
0.09446799 -0.06754451 0.37895688 -0.018515604 0.0074234437 -0.057481423 0.18593994 -0.18343857
0.31799382 -0.008287095 0.25132424 0.012301173 -0.06544644 -0.151548 0.54225427 -0.32495612
0.41776082 -0.016151078 0.15542096 0.050406493 -0.1490609 0.13561223 0.22204599 -0.039371308
0.20610644 -0.031104421 0.4320173 0.1566462 -0.025698839 -0.093228556 -0.0038433785 -0.030308077
0.2756814 -0.023859013 -0.053026147 0.0474969 -0.056363143 0.18083636 0.07483023 -0.01540567
0.029188398 0.20373079 -0.008470425 -0.08084594 0.18539545 0.36916035 -0.07357422 -0.008926262
00000000: b37e 363f 338f 3b3e 26fd d5bc e41d 7fbc
00000010: b662 47bd f4ef 57bc b081 adbc b922 ca3d
00000020: 9753 98bd 2e8e 683c ea89 a03e 0362 733e
00000030: db8c 803e 5306 8e3e 9dac acba 08ed 29bc
00000040: a877 463c 05e6 013d f4c2 473e 140f f13e
00000050: 0a31 c3bc d675 3dbd 5865 273f 917e da3d
00000060: fdb2 863b 31e9 51bc 695b c6bd 36a4 d7ba
00000070: 12e2 893d 8183 15bd c477 5abd 00c6 893e
00000080: 8519 14bd b904 4b3e 608c 01bd 14ee 0dbe
00000090: f382 0ebe 6c5c 613e 685e 0a3e 851a 95bc
000000a0: f9aa d43e 3236 35be 5861 bd3c 23de a03b
000000b0: 5b40 2fbd cee7 3f3e db51 a4bc 86db a43d
000000c0: fb5e 5cbd 3935 393b 117c 9dbd 8166 4abd
000000d0: cd9e 583e a4c4 373c d7fa 8b3e 98a0 a4bc
000000e0: ab09 f8bc 9031 663c 401a b336 7af9 a3be
000000f0: 7a20 cf3e 80d8 eabc f3b7 2a3e daad 3d3d
00000100: 6890 3b3d 0e60 b3bc d7ea 673e 364f c83e
00000110: d740 1ebd ba37 343d f7e6 8b3e 2897 a9bc
00000120: 6f78 c13d c754 8abd a306 c23e 09ae 97bc
00000130: 5c40 f33b a471 6bbd 0a67 3e3e 52d7 3bbe
00000140: 16d0 a23e 99c6 07bc 92ad 803e dc8a 493c
00000150: c808 86bd 662f 1bbe 2dd1 0a3f a660 a6be
00000160: bfe4 d53e 444f 84bc ac26 1f3e 0a77 4e3d
00000170: 6ca3 18be efdd 0a3e 0660 633e cf43 21bd
00000180: 910d 533e b3ce febc 5f31 dd3e dd67 203e
00000190: 5f86 d2bc 9dee bebd 31e1 7bbb a548 f8bc
000001a0: 1d26 8d3e fa73 c3bc f231 59bd 1c8c 423d
000001b0: 0add 66bd 2b2d 393e 9740 993d 1068 7cbc
000001c0: 821c ef3c ce9e 503e 8ac7 0abc 8e92 a5bd
000001d0: 4ed8 3d3e 9602 bd3e 15ae 96bd 753f 12bc

fc2.weight f4 [84, 120]
-0.07169855 0.12605649 0.0112556955 0.08292261 0.14424685 0.05193251 0.077524334 0.048963852
0.19806239 0.024355989 -0.24966542 -0.33700398 -0.027043337 -0.00019953832 0.039710555 0.06161768
-0.053305704 -0.21009345 -0.12525381 0.10847981 0.07942737 -0.044890683 -0.11702375 -0.018094338
-0.08572256 0.007261113 -0.26288307 0.033656463 0.026755517 0.0038893872 -0.0046958947 0.12826316
-0.026276624 -0.08106178 -0.09268858 -0.27662572 -0.00973015 -0.047265783 -0.10250711 -0.0032719157
0.24282262 -0.32394227 -0.14173801 -0.07611963 0.25482225 0.066803664 0.019313728 -0.027957344
0.02924037 -0.019638013 0.11439768 -0.08140903 -0.09944776 0.034457248 -0.08485715 0.051855594
0.07229331 -0.024955707 -0.034983113 0.056077376 -0.11674314 0.08495709 0.21492161 0.0094415685
0.26509175 -0.10452724 0.12431237 -0.19920118 -0.0012767903 -0.28198802 0.011620621 0.05962102
-0.022579163 0.0598893 0.027802922 0.0062738787 0.10080867 -0.07185854 -0.061937433 -0.20257504
-0.046339273 -0.047734816 0.13732828 0.042360097 0.08971661 0.052611664 -0.18302871 0.016290892
0.08119747 0.01100136 -0.09167888 0.11048875 -0.13302206 0.048872642 0.018979069 0.007559961
0.15792379 -0.05090505 0.111146696 0.11805478 -0.091956005 -0.20982659 -0.07109817 0.023286702
0.03143525 0.09876969 -0.00400359 -9.721605e-05 0.060937565 -0.09995782 0.019864691 -0.052157126
0.06373179 -0.20771812 0.060585726 -0.16822103 0.14081737 0.052311413 0.10434519 0.070608094
-0.08550528 -0.17138521 -0.1869332 -0.04705255 -0.15447693 -0.050949372 -0.046295762 -0.107800625
-0.122545615 -0.008187922 -0.16770466 -0.024817001 0.047678135 -0.10003451 -0.007962643 -0.0029363164
0.033104107 0.05797402 0.11791578 -0.028375717 0.079597674 -0.009813957 -0.020108879 0.014699165
0.023188563 0.07723698 -0.0031309368 0.043429468 0.05106618 0.067559555 0.048826013 -0.002280941
0.058646463 -0.13871396 -0.021328434 -0.02153482 -0.12299916 -0.1593176 -0.074853435 0.019672817
0.08484322 -0.07908435 0.09112824 0.06955554 -0.10452678 -0.034020573 -0.052233957 -0.1238853
-0.01998507 0.07452011 -0.019704519 -0.008365759 -0.104476444 0.06384067 -0.20725104 0.062298175
-0.10016033 -0.027322168 -0.08576855 0.022437427 -0.05171474 0.0061190594 -0.22305945 0.14517303
-0.13691051 -0.012731363 -0.12411392 -0.22658616 -0.019053191 -0.037487704 0.0003457084 0.025845861
-0.037954308 0.0077465326 -0.00032360444 0.03373125 0.0021697932 -0.015894566 -0.013380683 0.15770614
-0.25338364 0.098680384 -0.03503908 -0.066728495 -0.08911592 0.010694757 0.05007423 -0.11168929
-0.117702834 0.096984155 0.09786965 -0.24807936 0.11387182 -0.083688885 0.066070385 0.06029889
-0.12880552 -0.09461947 -0.08154198 0.0054727634 0.06390755 -0.0786285 -0.057945635 0.077498086
-0.21708377 -0.033678986 0.04497986 -0.07396116 -0.020796273 -0.109755196 -0.024520455 0.057986926
-0.19149883 0.024115523 -0.05653887 0.04690233 -0.14850518 -0.12400485 -0.101048365 -0.039687574
-0.14608623 -0.06316442 -0.004919302 -0.06999704 -0.008652667 0.08186549 0.0009842074 -0.031908948
0.0024663329 0.071716964 -4.048321e-06 -0.032236345 -0.026722316 -0.11367761 -0.080729835 0.008656402
00000000: b0d6 92bd f414 013e cf69 383c 54d3 a93d
00000010: 72b5 133e 2fb7 543d 14c5 9e3d 528e 483d
00000020: ded0 4a3e 3686 c73c 4ba8 7fbe c98b acbe
00000030: fd89 ddbc 293b 51b9 89a7 223d d262 7c3d
00000040: 1557 5abd bd22 57be 8942 00be aa2a de3d
00000050: d1aa a23d 4bdf 37bd 26aa efbd 943a 94bc
00000060: 4f8f afbd a1ee ed3b 9c98 86be 5cdb 093d
00000070: 632e db3c 17e5 7e3b 05e0 99bb 6b57 033e
00000080: 1342 d7bc b803 a6bd 83d3 bdbd e3a1 8dbe
00000090: 356b 1fbc c499 41bd 3fef d1bd a36d 56bb
000000a0: 7ea6 783e c3db a5be c523 11be 9ce4 9bbd
000000b0: 1078 823e 5cd0 883d d337 9e3c cd06 e5bc
000000c0: 8089 ef3c e6df a0bc 5549 ea3d c7b9 a6bd
000000d0: 44ab cbbd 0b23 0d3d 96c9 adbd 8866 543d
000000e0: 840e 943d e96f ccbc 744a 0fbd 64b1 653d
000000f0: 0717 efbd fcfd ad3d 6914 5c3e cfb0 1a3c
00000100: 1bba 873e 6112 d6bd 7c97 fe3d 65fb 4bbe
00000110: f959 a7ba bc60 90be 6b64 3e3c 2c35 743d
00000120: f0f7 b8bc 7c4e 753d f4c2 e33c 1c95 cd3b
00000130: c774 ce3d 922a 93bd 1bb2 7dbd d56f 4fbe
00000140: 40ce 3dbd 9585 43bd c99f 0c3e c881 2d3d
00000150: 58bd b73d 547f 573d e16b 3bbe 7a74 853c
00000160: dc4a a63d 0c3f 343c 23c2 bbbd ed47 e23d
00000170: ef36 08be ae2e 483d fe79 9b3c 8db9 f73b
00000180: c6b6 213e d081 50bd e1a0 e33d b4c6 f13d
00000190: 6e53 bcbd c8dc 56be eb9b 91bd c1c3 be3c
000001a0: 40c2 003d c347 ca3d 8c30 83bb 78e0 cbb8
000001b0: ab99 793d afb6 ccbd 47bb a23c b6a2 55bd
000001c0: d085 823d 0fb4 54be bd28 783d 2242 2cbe
000001d0: 6e32 103e 7e44 563d eeb2 d53d fa9a 903d
000001e0: 641d afbd 9b7f 2fbe 6b6b 3fbe 2dba 40bd
000001f0: 332f 1ebe 4ab0 50bd a0a0 3dbd 93c6 dcbd
00000200: 32f9 fabd a226 06bc c5ba 2bbe 064d cbbc
00000210: 264a 433d e5de ccbd bf75 02bc 376f 40bb
00000220: 2c98 073d 2a76 6d3d d47d f13d 3174 e8bc
00000230: 1b04 a33d b8ca 20bc 60bb a4bc c4d4 703c
00000240: f1f5 bd3c 6c2e 9e3d 6730 4dbb 19e3 313d
00000250: c52a 513d aa5c 8a3d c9fd 473d d77b 15bb
00000260: 4637 703d 080b 0ebe f8b8 aebc ca69 b0bc
00000270: fce6 fbbd 2724 23be c24c 99bd e328 a13c
00000280: 48c2 ad3d faf6 a1bd 71a1 ba3d 2373 8e3d
00000290: 2312 d6bd 2859 0bbd 46f3 55bd 93b7 fdbd
000002a0: bbb7 a3bc 009e 983d 5f6b a1bc 8910 09bc
000002b0: bff7 d5bd e6be 823d 9e39 54be 5f2c 7f3d
000002c0: dc20 cdbd bdd2 dfbc 6ca7 afbd b2ce b73c
000002d0: d6d2 53bd 6482 c83b b269 64be 3da8 143e
000002e0: 4532 0cbe 3597 50bc 702f febd 3406 68be
000002f0: 7015 9cbc b58c 19bd 3240 b539 b3ba d33c
00000300: fa75 1bbd a0d6 fd3b 74a9 a9b9 c729 0a3d
00000310: 1733 0e3b 5235 82bc a73a 5bbc b87d 213e
00000320: 80bb 81be f118 ca3d 2385 0fbd f3a8 88bd
00000330: 6882 b6bd 1039 2f3c a31a 4d3d 5bbd e4bd
00000340: 2f0e f1bd a19f c63d e26f c83d 8408 7ebe
00000350: a135 e93d 1465 abbd e94f 873d f8fb 763d
00000360: 98e5 03be dac7 c1bd 7bff a6bd de54 b33b
00000370: f6e1 823d fb07 a1bd 6758 6dbd 51b7 9e3d
00000380: 354b 5ebe faf2 09bd cd3c 383d f378 97bd
00000390: f25c aabc 55c7 e0bd 1fdf c8bc b383 6d3d
000003a0: 4518 44be eb8d c53c 4d95 67bd a81c 403d
000003b0: be11 18be 41f6 fdbd 72f2 cebd 708f 22bd
000003c0: a197 15be 595c 81bd 1932 a1bb 9c5a 8fbd
000003d0: eac3 0dbc 18a9 a73d 8500 813a f5b2 02bd
000003e0: 33a2 213b 58e0 923d d0d6 87b6 420a 04bd
000003f0: c2e8 dabc cfcf e8bd af55 a5bd 95d3 0d3c

fc2.bias f4 [84]
0.13606168 -0.08658037 -0.0039761923 -0.060540378 0.3140173 0.34838036 0.3819364 0.050048944
0.05567989 0.16764136 0.31417754 0.4152468 0.015010191 0.22676885 0.11921107 0.039679673
-0.27116734 0.2974243 -0.116323106 0.2455744 0.14455199 0.08062071 0.10176561 0.026665062
0.2348457 0.23405302 0.11496709 0.19273098 0.04466038 0.1464902 0.19106063 0.62158895
0.24973992 0.016234506 0.13741797 0.104000725 0.25460497 0.026752664 0.3465219 0.4068059
0.46189627 -0.049760744 0.19543037 0.4142185 -0.15347229 0.3350213 0.36304545 0.11502658
-0.004965557 0.14497219 0.25475913 0.26409388 0.6025316 0.46530396 0.09623668 0.0761758
0.010944611 0.2413737 0.07503785 0.13253957 -0.029093113 0.069375485 0.19534893 0.053407796
0.29637071 0.1801551 -0.05938287 0.17737916 0.057028644 0.378931 -0.040542297 -0.12920524
0.1855923 -0.013694331 0.0681777 -0.15933427 0.03383684 -0.09984751 0.3602557 -0.31488174
0.20067413 -0.058168657 -0.016488101 0.18379512
00000000: c153 0b3e 0d51 b1bd b84a 82bb 30f9 77bd
00000010: e0c6 a03e e95e b23e 2b8d c33e 1f00 4d3d
00000020: 9910 643d 2daa 2b3e e1db a03e 3b9b d43e
00000030: 4eed 753c 1836 683e ef24 f43d 2787 223d
00000040: 72d6 8abe ff47 983e cf3a eebd db77 7b3e
00000050: 7005 143e 791c a53d 7d6a d03d b070 da3c
00000060: 647b 703e 98ab 6f3e de73 eb3d 455b 453e
00000070: cded 363d 8701 163e 66a5 433e 7420 1f3f
00000080: d2bb 7f3e 3afe 843c 4cb7 0c3e 55fe d43d
00000090: 955b 823e 6728 db3c 526b b13e dd48 d03e
000000a0: ab7d ec3e ecd1 4bbd e61e 483e 7214 d43e
000000b0: d727 1dbe e987 ab3e 18e1 b93e 0e93 eb3d
000000c0: 1cb6 a2bb 9773 143e ca6f 823e 5037 873e
000000d0: 833f 1a3f 523c ee3e bd17 c53d 0f02 9c3d
000000e0: 0751 333c ab2a 773e 72ad 993d 74b8 073e
000000f0: ae54 eebc bc14 8e3d 8d09 483e 22c2 5a3d
00000100: e7bd 973e 947a 383e 743b 73bd e2a2 353e
00000110: de96 693d 3e03 c23e ae0f 26bd 614e 04be
00000120: e80b 3e3e 305e 60bc c0a0 8b3d 8628 23be
00000130: 8098 0a3d da7c ccbd 6f73 b83e 2e38 a1be
00000140: 857d 4d3e 4242 6ebd 0e12 87bc ca34 3c3e

fc3.weight f4 [10, 84]
0.10466201 -0.09938082 0.18697634 -0.06508641 0.08131125 -0.083046526 0.09565628 -0.26455876
-0.17883913 0.037544552 -0.119400926 -0.31770018 0.13628608 -0.25136146 -0.31807268 -0.19848727
-0.092688255 0.096662804 -0.0780155 -0.032236017 -0.23165296 0.122947365 -0.14385056 0.1357308
-0.02633311 -0.08416228 0.10575534 -0.1901981 -0.23932339 0.124163695 0.0459431 -0.35874543
-0.120509416 -0.24092159 0.12027714 0.1274304 -0.24399386 0.12920251 0.078050934 0.11819317
0.021449843 0.022003395 -0.009594759 0.030463573 0.03646774 0.055356026 0.16820642 -0.08610979
0.12676284 0.08206737 -0.047219522 0.102919646 -0.058477733 -0.085972 0.070400596 0.09604964
0.14599685 -0.072746664 -0.23002504 -0.2829174 -0.03555747 0.0040031923 -0.079225935 0.14817482
-0.11540781 0.14686431 -0.21977068 0.080692224 0.013928926 -0.2345722 -0.019421939 -0.18135045
0.12141609 -0.1588801 -0.03190458 -0.06466973 -0.07758374 -0.12758571 0.017114757 0.13810223
0.21590614 0.019222863 -0.13850307 -0.2406592 0.0013784737 -0.014048608 -0.0387067 -0.19550434
-0.31695625 -0.16874874 0.034775235 0.18550122 0.12779109 -0.28537086 -0.19289641 -0.17510521
-0.007341265 -0.0060089915 -0.08271483 -0.09201462 0.18346018 0.050174337 0.23768225 -0.059096724
-0.19096665 -0.15952104 0.12880851 -0.059612177 0.09843072 -0.23268148 0.0007778226 0.10522727
-0.21483414 -0.0066310335 -0.28115433 -0.17878897 -0.31297556 -0.074446596 -0.06201269 -0.02897495
0.019244943 -0.027970612 0.016028926 0.026572859 -0.34354666 0.21863204 -0.054513298 0.022587566
-0.011374431 -0.16744426 -0.12532222 0.16039027 -0.040693957 -0.22142154 0.19564769 0.06612891
-0.6202225 -0.13460374 -0.46160904 -0.04450546 -0.16403085 -0.31573504 -0.13385472 -0.061735414
0.121468775 0.05875761 -0.09301101 -0.076753244 -0.0610453 0.12388316 -0.026688265 -0.11715744
0.11743082 -0.15155578 0.07913542 -0.054021496 0.12631154 0.1420444 0.1491816 0.090347484
-0.0012805111 -0.09066067 0.05889616 0.0031107033 -0.196429 -0.024628751 -0.14456652 -0.32173926
0.16291775 -0.15015642 -0.07355509 -0.12513727 0.16923852 0.079030134 -0.16490728 -0.01735821
0.042255018 -0.07296211 0.115939 0.11462776 -0.3352559 -0.13561444 0.08663193 -0.10151172
0.11207072 0.027851267 0.03497357 -0.08790868 0.04380517 0.12827088 0.097517215 0.10087919
-0.41470426 -0.076645866 -0.066222 -0.2844477 -0.058649763 -0.24382679 0.13510077 -0.008974987
0.11438977 -0.18603384 -0.30398303 -0.11960111 0.07155167 0.07534266 0.16233233 0.07381967
-0.16991425 -0.07948776 -0.27327633 -0.10399713 0.14373448 0.115199186 -0.045656808 0.15138844
-0.14041106 0.121551886 -0.15715384 -0.23681751 0.0018146671 -0.091753595 -0.08085681 0.060466774
-0.12745218 0.08399847 -0.15184186 0.15474892 -0.1971374 0.13441893 0.03549788 -0.2614955
-0.090214595 -0.13024673 -0.016507834 -0.061493628 -0.079925165 -0.17680742 0.066155724 0.06972772
0.01816612 -0.24835517 -0.15424712 0.08183477 0.051525075 -0.22883844 -0.021731792 0.20471998
0.04586999 -0.46554884 -0.08109869 -0.23414515 0.19706781 -0.15278058 -0.076636024 -0.19947001
00000000: 0959 d63d 2c88 cbbd ba76 3f3e 064c 85bd
00000010: 8386 a63d 4c14 aabd 71e7 c33d 3f74 87be
00000020: 9b21 37be 51c8 193d 7988 f4bd 99a9 a2be
00000030: 948e 0b3e 73b2 80be 6cda a2be 3f40 4bbe
00000040: 57d3 bdbd 26f7 c53d 97c6 9fbd ea09 04bd
00000050: 6f36 6dbe d4cb fb3d 904d 13be 04fd 0a3e
00000060: 89b8 d7bc 465d acbd 4196 d83d 4ac3 42be
00000070: 3111 75be 8949 fe3d d52e 3c3d 7bad b7be
00000080: a4cd f6bd 26b4 76be dc53 f63d 1d7d 023e
00000090: 87d9 79be aa4d 043e 2bd9 9f3d 430f f23d
000000a0: 95b7 af3c 7740 b43c 5633 1dbc be8e f93c
000000b0: 325f 153d 00bd 623d 4e3e 2c3e 545a b0bd
000000c0: 1ece 013e f012 a83d 4269 41bd 89c7 d23d
000000d0: 5986 6fbd 1712 b0bd 302e 903d acb5 c43d
000000e0: 3380 153e 34fc 94bd af8b 6bbe 8dda 90be
000000f0: b6a4 11bd 362d 833b 3541 a2bd 24bb 173e
00000100: ee5a ecbd 9963 163e 910b 61be f741 a53d
00000110: 2636 643c b233 70be c21a 9fbc efb3 39be
00000120: 00a9 f83d 77b1 22be 60ae 02bd 9071 84bd
00000130: 39e4 9ebd d4a5 02be 3f34 8c3c ac6a 0d3e
00000140: 8016 5d3e 4479 9d3c c0d3 0dbe 5e6f 76be
00000150: e7ad b43a 222c 66bc eb8a 1ebd 4a32 48be
00000160: 1748 a2be 78cc 2cbe 7a70 0e3d 08f4 3d3e
00000170: abdb 023e 211c 92be a386 45be c84e 33be
00000180: ff8e f0bb 13e7 c4bb 6566 a9bd 2972 bcbd
00000190: fcdc 3b3e 9b83 4d3d fa62 733e 680f 72bd
000001a0: c38c 43be 7c59 23be 61e6 033e e62b 74bd
000001b0: 0c96 c93d 0e44 6ebe cbe6 4b3a 6581 d73d
000001c0: 7bfd 5bbe 2449 d9bb 76f3 8fbe 7514 37be
000001d0: 553e a0be 7577 98bd 0501 7ebd e05c edbc
000001e0: 92a7 9d3c a022 e5bc 184f 833c 53af d93c
000001f0: 59e5 afbe 14e1 5f3e 5649 5fbd 8f09 b93c
00000200: d25b 3abc 8276 2bbe 7854 00be 593d 243e
00000210: b5ae 26bd 54bc 62be de57 483e 986e 873d
00000220: e7c6 1ebf 90d5 09be 0558 ecbe 5b4b 36bd
00000230: b4f7 27be 06a8 a1be 3611 09be 46de 7cbd
00000240: 9fc4 f83d d2ab 703d 8e7c bebd ce30 9dbd
00000250: a30a 7abd 74b6 fd3d 59a1 dabc 3df0 efbd
00000260: 927f f03d 7031 1bbe c011 a23d a545 5dbd
00000270: d057 013e 1674 113e 10c3 183e 1a08 b93d
00000280: d3d6 a7ba 4dac b9bd 1a3d 713d f1dc 4b3b
00000290: af24 49be 3cc2 c9bc 3f09 14be 02bb a4be
000002a0: e9d3 263e 9bc2 19be 0da4 96bd fc23 00be
000002b0: dd4c 2d3e 8dda a13d 74dd 28be ce32 8ebc
000002c0: 9913 2d3d 296d 95bd 6d71 ed3d f6c1 ea3d
000002d0: a9a6 abbe 83de 0abe 156c b13d 60e5 cfbd
000002e0: 5585 e53d 5728 e43c 7240 0f3d 7709 b4bd
000002f0: 0d6d 333d 7159 033e 1bb7 c73d c099 ce3d
00000300: 1e54 d4be 82f8 9cbd 669f 87bd 21a3 91be
00000310: bc3a 70bd bbad 79be db57 0a3e d30b 13bc
00000320: 2f45 ea3d a87f 3ebe aaa3 9bbe 6df1 f4bd
00000330: af89 923d 414d 9a3d 723a 263e c42e 973d
00000340: 00fe 2dbe 7bca a2bd e0ea 8bbe 73fc d4bd
00000350: 222f 133e 8ded eb3d a202 3bbd 9205 1b3e
00000360: ebc7 0fbe 32f0 f83d f0ec 20be 4a80 72be
00000370: 20da ed3a 4fe9 bbbd 4198 a5bd 02ac 773d
00000380: d382 02be 6407 ac3d 6f7c 1bbe 8076 1e3e
00000390: 63de 49be 1ea5 093e 3a66 113d bde2 85be
000003a0: 6ec2 b8bd 665f 05be 703b 87bc bee0 7bbd
000003b0: ceaf a3bd 010d 35be a77c 873d 68cd 8e3d
000003c0: 1dd1 943c d150 7ebe f5f2 1dbe fd98 a73d
000003d0: f50b 533d a054 6abe df06 b2bc 1da2 513e
000003e0: 2ce2 3b3d 6b5c eebe 1217 a6bd bfc3 6fbe
000003f0: 25cc 493e 8372 1cbe 59f3 9cbd de41 4cbe

fc3.bias f4 [10]
0.019625923 -0.3380436 -0.042913083 0.11805321 0.17976485 -0.052561264 -0.07993725 -0.034033664
0.24648954 -0.022760205
00000000: 8bc6 a03c 0d14 adbe a1c5 2fbd e2c5 f13d
00000010: 4714 383e 7b4a 57bd 24b6 a3bd e266 0bbd
00000020: c167 7c3e 9c73 babc
